
 Model Name: VGG_16 
 Model: "model"
_________________________________________________________________
 Layer (type)                Output Shape              Param #   
=================================================================
 input_2 (InputLayer)        [(None, 224, 224, 3)]     0         
                                                                 
 sequential (Sequential)     (None, 224, 224, 3)       0         
                                                                 
 tf.__operators__.getitem (S  (None, 224, 224, 3)      0         
 licingOpLambda)                                                 
                                                                 
 tf.nn.bias_add (TFOpLambda)  (None, 224, 224, 3)      0         
                                                                 
 vgg16 (Functional)          (None, 7, 7, 512)         14714688  
                                                                 
 global_average_pooling2d (G  (None, 512)              0         
 lobalAveragePooling2D)                                          
                                                                 
 dropout (Dropout)           (None, 512)               0         
                                                                 
 dense (Dense)               (None, 6)                 3078      
                                                                 
=================================================================
Total params: 14,717,766
Trainable params: 3,078
Non-trainable params: 14,714,688
_________________________________________________________________

 BACH_SIZE: 32 
 
 IMG_SIZE: (224, 224) 
 
 val_split: 0.1 
 
 preprocessing: <function preprocess_input at 0x7f08a3975680> 
…
