
 Model Name: MobileNetV2 
 Model: "model"
_________________________________________________________________
 Layer (type)                Output Shape              Param #   
=================================================================
 input_2 (InputLayer)        [(None, 224, 224, 3)]     0         
                                                                 
 sequential (Sequential)     (None, 224, 224, 3)       0         
                                                                 
 tf.math.truediv (TFOpLambda  (None, 224, 224, 3)      0         
 )                                                               
                                                                 
 tf.math.subtract (TFOpLambd  (None, 224, 224, 3)      0         
 a)                                                              
                                                                 
 mobilenetv2_1.00_224 (Funct  (None, 7, 7, 1280)       2257984   
 ional)                                                          
                                                                 
 global_average_pooling2d (G  (None, 1280)             0         
 lobalAveragePooling2D)                                          
                                                                 
 dropout (Dropout)           (None, 1280)              0         
                                                                 
 dense (Dense)               (None, 6)                 7686      
                                                                 
=================================================================
Total params: 2,265,670
Trainable params: 7,686
Non-trainable params: 2,257,984
_________________________________________________________________

 BACH_SIZE: 32 
 
 IMG_SIZE: (224, 224) 
 
 val_split: 0.1 
 
 preprocessing: <function preprocess_input at 0x7ff41db05d40> 
…
